server/ml_agent/spotify_stats_classifier.pth (torch, 5810 bytes, 6 tensors)

fc1.weight f4 [32, 2]
0.29055133 1.4331944 -0.61915714 1.0928771 -1.2163627 0.0008033942 0.61841923 -0.4156136
-0.045583673 -0.890535 1.5649886 0.1982106 -0.17989355 -0.0040652156 -0.3911387 -1.2058477
-1.0735452 1.2322849 0.78871775 1.418075 -0.6777344 0.16576892 1.5278654 0.94257176
-0.66456366 -0.3261768 -0.34741336 -0.16671306 1.5985721 -0.30299726 -0.9095371 0.5027489
1.1627586 -0.49668112 1.3939235 0.16186066 1.619726 -0.3772763 -0.9600217 0.094670296
-0.87262356 0.50760275 -0.26790136 0.25667316 0.051636398 0.49153525 -0.8633128 -0.28118995
-0.9606723 -0.4881419 -0.25546485 -0.3977564 -0.67169005 1.5311382 0.20885046 1.3705814
0.9527676 -0.07100805 1.3817536 0.38024428 0.877748 -0.6754699 -0.19711667 -0.004423976
00000000: 25c3 943e ea72 b73f 1581 1ebf 66e3 8b3f
00000010: c6b1 9bbf df9a 523a b950 1e3f 4ecb d4be
00000020: f2b5 3abd 1afa 63bf 8c51 c83f b8f7 4a3e
00000030: 0436 38be 8035 85bb 5543 c8be 3859 9abf
00000040: ee69 89bf 83bb 9d3f 68e9 493f 7b83 b53f
00000050: 0080 2dbf 54bf 293e 1891 c33f 624c 713f
00000060: d820 2abf a500 a7be 2ae0 b1be d4b6 2abe
00000070: 039e cc3f 7522 9bbe 6cd7 68bf 27b4 003f
00000080: 46d5 943f fd4c febe 166c b23f cdbe 253e
00000090: 2e53 cf3f 5c2a c1be fbc3 75bf 80e2 c13d
000000a0: 4264 5fbf 41f2 013f 5e2a 89be aa6a 833e
000000b0: b080 533d 82aa fb3e 1102 5dbf 21f8 8fbe
000000c0: 9fee 75bf bced f9be 4acc 82be baa6 cbbe
000000d0: e1f3 2bbf 56fc c33f e5dc 553e 366f af3f
000000e0: 94e8 733f ab6c 91bd 4ddd b03f 61af c23e
000000f0: 18b4 603f 98eb 2cbf f4d8 49be 00f7 90bb

fc1.bias f4 [32]
0.094504416 0.15519221 0.7152901 -0.66768926 0.62976134 0.86918646 -0.21248451 1.0823275
0.47421017 -0.45356008 -0.35395908 -0.5111447 0.009753484 -0.036041796 0.23833823 0.9146912
0.4885619 0.23647623 0.1203689 1.0953472 0.3568517 -0.24939175 -0.661214 0.7709618
1.0306383 -0.102213204 -0.048081 -0.30478385 0.74630946 -0.13953704 0.84003675 -0.17303008
00000000: 888b c13d b5ea 1e3e 411d 373f afed 2abf
00000010: 0a38 213f 0183 5e3f 8a95 59be b589 8a3f
00000020: adcb f23e 0739 e8be 203a b5be 61da 02bf
00000030: 14cd 1f3c 90a0 13bd f00e 743e 3429 6a3f
00000040: c924 fa3e d326 723e f883 f63d 5634 8c3f
00000050: 44b5 b63e 8d60 7fbe 5245 29bf c15d 453f
00000060: f5eb 833f 2855 d1bd 95f0 44bd a10c 9cbe
00000070: 230e 3f3f cce2 0ebe a60c 573f cc2e 31be

fc2.weight f4 [16, 32]
0.33034834 1.1681993 1.5122828 0.09598394 -0.5831308 0.05226287 0.07504012 -0.49416226
1.0094024 0.2194298 -0.10044951 -0.43484113 -0.10065691 0.14233936 -0.4500318 0.35752514
-0.12956426 -0.24861757 -0.62752587 0.5180902 1.3206238 -0.08430216 -0.11619321 0.6784321
0.36819503 0.11824785 1.4835039 0.5975553 -0.10734959 -0.4284909 -0.27619827 -0.028519362
0.10776116 0.031113565 -0.0069794357 -0.15094747 -0.12686972 -0.12997508 0.059323475 0.07959722
0.122843966 0.030122474 -0.09091947 -0.15432009 0.121037856 -0.122676134 0.03753011 -0.10028126
0.10063152 0.045750976 -0.15181103 -0.17199075 -0.14265798 -0.17176534 0.15575291 0.13181542
0.15384068 -0.09703699 -0.13904256 0.00038285553 0.036706895 0.024275094 0.13968693 0.08030759
-0.09839458 0.040436022 -0.0010168279 -0.03228362 0.058887765 0.13373455 0.013273343 0.09829541
-0.19171037 -0.0009034713 0.112384245 0.08079417 -0.034374863 0.06739214 -0.15047769 -0.09174626
-0.08582332 -0.105583414 -0.07190842 -0.06308879 0.12725733 0.041555062 0.11581342 0.004045019
0.12088776 0.089353815 -0.119169965 -0.09456065 0.124450594 -0.1324813 0.028414508 0.028761014
0.06875715 0.6736284 2.5029128 -0.011765584 0.6096926 -0.07109915 0.11772926 0.8881297
1.0788722 -0.5038357 -0.09804392 -0.9927453 -0.017598037 -0.04775153 -0.59824026 0.5239969
-0.019856669 -0.20403454 -0.9184928 0.8910642 1.4696168 -0.03690666 0.1199709 1.4762478
1.6241369 0.17087005 0.6623731 -0.23612079 0.035919532 -0.6644243 0.1768963 -0.08951706
0.058033545 0.92497313 1.9935126 -0.1429859 -0.1387781 -0.058535963 -0.03204994 0.13564594
1.0106553 -0.10919183 -0.10989454 -0.6056814 -0.17792374 -0.12479983 -0.39350328 0.55106187
-0.32384136 -0.056341883 -0.56122184 0.44425213 1.5139132 -0.08971763 -0.03390552 0.9357685
1.0318655 0.074785754 1.133545 0.23482136 0.16567495 -0.24315539 -0.15244289 0.13657473
-0.21011877 0.07072683 -0.07129149 0.11544551 -0.03056755 -0.020151453 0.08665781 -0.18783537
0.08041765 -0.026682341 0.12751184 -0.07190427 0.06237086 0.03371419 -0.139778 0.07903726
-0.1269808 0.03289137 -0.14804602 0.029567022 -0.27060282 0.09325198 -0.16743329 -0.23661827
0.109195895 -0.07145412 -0.01938884 -0.09988546 0.0063278046 -0.044837307 -0.026725868 0.061113
0.03777492 0.48262092 2.091006 -0.14384477 1.0356499 0.020229742 -0.1156229 1.2741467
0.53709936 -0.47547475 -0.12489032 -1.092909 0.13610648 0.011760384 -0.36591995 0.6420592
-0.1870683 -0.2689868 -0.31186375 0.87805086 1.1508894 0.036600992 0.17351021 1.6544697
1.5931902 0.10156943 0.33543694 -0.31903422 0.03291264 -0.4918604 0.089143485 0.11895256
-0.122215554 -0.04922317 -0.08067121 -0.017126083 0.115979835 -0.10070943 0.11075704 -0.09000927
-0.003676623 0.0029251128 0.16219501 0.14516972 0.102257445 0.117775336 -0.0691001 -0.021617219
0.13627432 -0.011138931 -0.15300845 -0.09644375 0.119053796 0.005103454 -0.095395766 -0.08021694
-0.10245888 -0.013704136 0.047246948 0.0895956 -0.09849468 -0.002009496 0.07452224 -0.07738981
00000000: 6b23 a93e 8e87 953f 7c92 c13f 3a93 c43d
00000010: 0f48 15bf 9711 563d a2ae 993d d602 fdbe
00000020: 1934 813f 35b2 603e 79b8 cdbd 7fa3 debe
00000030: 3625 cebd 69c1 113e 916a e6be 890d b73e
00000040: 7eac 04be 9b95 7ebe 89a5 20bf 8fa1 043f
00000050: 330a a93f 9ca6 acbd b5f6 edbd baad 2d3f
00000060: 0f84 bc3e ee2b f23d 75e3 bd3f 62f9 183f
00000070: 1ada dbbd 2963 dbbe dc69 8dbe 70a1 e9bc
00000080: e2b1 dc3d e0e1 fe3c c0b3 e4bb f991 1abe
00000090: 23ea 01be 3018 05be 2cfd 723d de03 a33d
000000a0: 9e95 fb3d 68c3 f63c fd33 babd 1606 1ebe
000000b0: b2e2 f73d a03d fbbd 2cb9 193d 4360 cdbd
000000c0: e617 ce3d 6065 3b3d 5a74 1bbe 581e 30be
000000d0: ef14 12be 41e3 2fbe b17d 1f3e 9ffa 063e
000000e0: 6988 1d3e 54bb c6bd 2c61 0ebe 00ba c839
000000f0: f859 163d 90dc c63c 170a 0f3e 4e78 a43d
00000100: 1983 c9bd 3ea0 253d 1547 85ba d43b 04bd
00000110: 4c34 713d b6f1 083e 7078 593c 1b4f c93d
00000120: b94f 44be efd6 6cba b629 e63d 6a77 a53d
00000130: a8cc 0cbd e404 8a3d d316 1abe 77e5 bbbd
00000140: 23c4 afbd 1e3c d8bd b944 93bd b234 81bd
00000150: bf4f 023e a435 2a3d 962f ed3d 148c 843b
00000160: 0094 f73d 22ff b63d 620f f4bd 04a9 c1bd
00000170: f4df fe3d 2ea9 07be 8bc5 e83c 389c eb3c
00000180: 8cd0 8c3d e972 2c3f b92f 2040 70c4 40bc
00000190: d014 1c3f 6e9c 91bd 0a1c f13d 785c 633f
000001a0: 7c18 8a3f 60fb 00bf 40cb c8bd 8e24 7ebf
000001b0: c229 90bc 1c97 43bd 4626 19bf a924 063f
000001c0: 74aa a2bc 6eee 50be 5822 6bbf c91c 643f
000001d0: 671c bc3f 702b 17bd 4eb3 f53d b0f5 bc3f
000001e0: b8e3 cf3f 8ff8 2e3e 4991 293f a6c9 71be
000001f0: 5c20 133d b617 2abf 4e24 353e b854 b7bd
00000200: 95b4 6d3d 0acb 6c3f 6c2b ff3f e56a 12be
00000210: d91b 0ebe 68c3 6fbd cc46 03bd c5e6 0a3e
00000220: 275d 813f f79f dfbd 6310 e1bd f00d 1bbf
00000230: a431 36be 0e97 ffbd 4379 c9be 6412 0d3f
00000240: 89ce a5be bfc6 66bd 3cac 0fbf 0475 e33e
00000250: e8c7 c13f e0bd b7bd 84e0 0abd 868e 6f3f
00000260: 2b14 843f 4629 993d 0118 913f 0375 703e
00000270: b2a6 293e bafd 78be fd19 1cbe 3fda 0b3e
00000280: 6029 57be 3ad9 903d 4601 92bd b26e ec3d
00000290: cc68 fabc a914 a5bc a679 b13d ea57 40be
000002a0: 02b2 a43d ed94 dabc 7792 023e 8c42 93bd
000002b0: 9678 7f3d e417 0a3d f721 0fbe 49de a13d
000002c0: 4107 02be 1ab9 063d 6099 17be 8a36 f23c
000002d0: 748c 8abe e5fa be3d a273 2bbe 0f4c 72be
000002e0: 19a2 df3d 8a56 92bd 58d5 9ebc c090 ccbd
000002f0: 7959 cf3b 53a7 37bd 35f0 dabc a051 7a3d
00000300: e0b9 1a3d 171a f73e 0bd3 0540 0b4c 13be
00000310: 2d90 843f d8b8 a53c b3cb ecbd 3d17 a33f
00000320: 587f 093f 6d71 f3be 7fc6 ffbd 71e4 8bbf
00000330: 7f5f 0b3e a0ae 403c dc59 bbbe fe5d 243f
00000340: d58e 3fbe a3b8 89be 9bac 9fbe f1c7 603f
00000350: 5850 933f ecea 153d a9ac 313e aac5 d33f
00000360: a8ed cb3f a203 d03d 64be ab3e 7458 a3be
00000370: 68cf 063d 20d5 fbbe dc90 b63d 669d f33d
00000380: 264c fabd 3c9e 49bd f336 a5bd 004c 8cbc
00000390: d686 ed3d bf40 cebd 96d4 e23d c856 b8bd
000003a0: 80f3 70bb 40b3 3f3b 7316 263e 5fa7 143e
000003b0: 5a6c d13d 3234 f13d 5a84 8dbd 9816 b1bc
000003c0: 7f8b 0b3e 1080 36bc 3fae 1cbe 4d84 c5bd
000003d0: 7ad2 f33d e03a a73b db5e c3bd c748 a4bd
000003e0: f6d5 d1bd 5087 60bc 0486 413d e67d b73d
000003f0: 94b7 c9bd c0b1 03bb 1e9f 983d 8c7e 9ebd

fc2.bias f4 [16]
0.24493723 -0.14362286 -0.11088684 0.3729014 0.33266798 0.12011614 0.496583 -0.11670369
0.29589576 0.48210377 -0.049645137 0.07434865 -0.07588457 0.3581685 -0.12564051 0.30733952
00000000: d3d0 7a3e df11 13be a418 e3bd efec be3e
00000010: 7553 aa3e 73ff f53d 2140 fe3e 5802 efbd
00000020: a67f 973e 4ed6 f63e b358 4bbd 1b44 983d
00000030: 5f69 9bbd dd61 b73e e8a7 00be 9b5b 9d3e

fc3.weight f4 [6, 16]
0.09611777 0.15386659 0.06433277 0.8169678 0.26289946 0.04586614 0.760481 0.22946471
-1.0622921 0.05229262 -1.5583774 -0.13393095 -0.11671359 0.79577756 0.113306284 0.6026902
0.76123697 -0.15029776 0.10776521 0.5924326 0.67808026 -0.10550799 0.26935002 0.10054535
-1.04969 -1.242503 0.45600414 0.06736224 -0.25677556 -1.259649 -0.22436088 0.44700238
-1.248235 0.17955518 -0.19487612 -0.2008503 -0.26272306 -0.028008766 -0.03866373 -0.13750625
0.1431132 0.5616029 -1.1186182 0.062482543 0.08389201 0.3683006 0.17182562 0.10140999
0.34754583 0.12447584 0.010064865 -0.41070288 0.13627653 0.17686129 -0.7692079 -0.17309162
0.30619338 -0.493779 0.343068 -0.20299384 -0.17225374 -1.5005919 -0.07113454 -0.34243444
-2.2253592 0.21915522 0.21924682 -2.4493527 -1.7265276 -0.14065842 -1.0394967 -0.13169691
0.5474751 0.7075624 -0.70341617 0.18005168 -0.2241751 0.72199726 -0.11568019 -1.7626722
-0.7088921 0.07479295 -0.086606935 -2.4949598 -0.68367064 0.15364587 -2.534153 0.11277515
0.6952343 -0.24360743 0.7927536 -0.013465887 -0.015705412 -1.7436829 0.23407266 -2.3223362
00000000: 65d9 c43d 348f 1d3e e6c0 833d cd24 513f
00000010: c29a 863e 22de 3b3d e2ae 423f ccf8 6a3e
00000020: 30f9 87bf c930 563d e978 c7bf 3225 09be
00000030: 8907 efbd 14b8 4b3f 200d e83d e849 1a3f
00000040: 6de0 423f a8e7 19be 02b4 dc3d aaa9 173f
00000050: ab96 2d3f 9314 d8bd 3fe8 893e b8ea cd3d
00000060: 3e5c 86bf 570a 9fbf 6079 e93e 37f5 893d
00000070: 1678 83be 2e3c a1bf dcbe 65be 7fdd e43e
00000080: 2ac6 9fbf 50dd 373e 9b8d 47be b3ab 4dbe
00000090: a383 86be a472 e5bc dc5d 1ebd 70ce 0cbe
000000a0: 448c 123e 35c5 0f3f e22e 8fbf b2ed 7f3d
000000b0: 93cf ab3d e591 bc3e 0ef3 2f3e 0ab0 cf3d
000000c0: 87f1 b13e 30ed fe3d 1be7 243c a647 d2be
000000d0: 138c 0b3e 201b 353e cfea 44bf ee3e 31be
000000e0: 61c5 9c3e 9ad0 fcbe 9ca6 af3e 9edd 4fbe
000000f0: 4963 30be 6513 c0bf fcae 91bd 9153 afbe
00000100: 496c 0ec0 3a6a 603e 3d82 603e 32c2 1cc0
00000110: dbfe dcbf c308 10be 3a0e 85bf 8edb 06be
00000120: 5427 0c3f cf22 353f 1513 34bf 785f 383e
00000130: 288e 65be d0d4 383f bce9 ecbd 3e9f e1bf
00000140: f479 35bf 0c2d 993d fa5e b1bd 6cad 1fc0
00000150: 0a05 2fbf 5855 1d3e 902f 22c0 a8f6 e63d
00000160: e0fa 313f 3a74 79be e6f1 4a3f 06a0 5cbc
00000170: a3a8 80bc 0031 dfbf beb0 6f3e 28a1 14c0

fc3.bias f4 [6]
-0.15766062 -0.3335749 0.14246121 0.10929963 -0.007889356 0.01247205
00000000: c971 21be 54ca aabe 5ae1 113e 7cd8 df3d
00000010: 5c42 01bc 9257 4c3c
